…
======================================================================

Loading CIFAR-10 dataset...
Training samples: 50000
Test samples: 10000
Image shape: (32, 32, 3)

Building models...
  - Baseline model (no regularization)
  - L1 regularized model
  - L2 regularized model
  - Group L1 regularized model

Model Architecture:
Model: "resnet18"
┏━━━━━━━━━━━━━━━━━━━━━━━━━━━━━━━━━┳━━━━━━━━━━━━━━━━━━━━━━━━┳━━━━━━━━━━━━━━━┓
┃ Layer (type)                    ┃ Output Shape           ┃       Param # ┃
┡━━━━━━━━━━━━━━━━━━━━━━━━━━━━━━━━━╇━━━━━━━━━━━━━━━━━━━━━━━━╇━━━━━━━━━━━━━━━┩
│ input_layer (InputLayer)        │ (None, 32, 32, 3)      │             0 │
├─────────────────────────────────┼────────────────────────┼───────────────┤
│ conv2d (Conv2D)                 │ (None, 32, 32, 64)     │         1,728 │
├─────────────────────────────────┼────────────────────────┼───────────────┤
│ batch_normalization             │ (None, 32, 32, 64)     │           256 │
│ (BatchNormalization)            │                        │               │
├─────────────────────────────────┼────────────────────────┼───────────────┤
│ activation (Activation)         │ (None, 32, 32, 64)     │             0 │
├─────────────────────────────────┼────────────────────────┼───────────────┤
│ block1_1 (ResidualBlock)        │ (None, 32, 32, 64)     │        74,240 │
├─────────────────────────────────┼────────────────────────┼───────────────┤
│ block1_2 (ResidualBlock)        │ (None, 32, 32, 64)     │        74,240 │
├─────────────────────────────────┼────────────────────────┼───────────────┤
│ block2_1 (ResidualBlock)        │ (None, 16, 16, 128)    │       230,912 │
├─────────────────────────────────┼────────────────────────┼───────────────┤
│ block2_2 (ResidualBlock)        │ (None, 16, 16, 128)    │       295,936 │
├─────────────────────────────────┼────────────────────────┼───────────────┤
│ block3_1 (ResidualBlock)        │ (None, 8, 8, 256)      │       920,576 │
├─────────────────────────────────┼────────────────────────┼───────────────┤
│ block3_2 (ResidualBlock)        │ (None, 8, 8, 256)      │     1,181,696 │
├─────────────────────────────────┼────────────────────────┼───────────────┤
│ block4_1 (ResidualBlock)        │ (None, 4, 4, 512)      │     3,676,160 │
├─────────────────────────────────┼────────────────────────┼───────────────┤
│ block4_2 (ResidualBlock)        │ (None, 4, 4, 512)      │     4,722,688 │
├─────────────────────────────────┼────────────────────────┼───────────────┤
│ global_average_pooling2d        │ (None, 512)            │             0 │
│ (GlobalAveragePooling2D)        │                        │               │
├─────────────────────────────────┼────────────────────────┼───────────────┤
│ dense (Dense)                   │ (None, 10)             │         5,130 │
└─────────────────────────────────┴────────────────────────┴───────────────┘
 Total params: 11,183,562 (42.66 MB)
 Trainable params: 11,173,962 (42.63 MB)
 Non-trainable params: 9,600 (37.50 KB)
2025-12-13 12:22:38.533855: I external/local_tsl/tsl/profiler/lib/profiler_session.cc:103] Profiler session initializing.
2025-12-13 12:22:38.533902: I external/local_tsl/tsl/profiler/lib/profiler_session.cc:118] Profiler session started.
…
